…
I0515 14:33:32.068311  7612 net.cpp:322] The NetState phase (0) differed from the phase (1) specified by a rule in layer accuracy
I0515 14:33:32.068439  7612 net.cpp:58] Initializing net from parameters: 
name: "AlexNet"
state {
  phase: TRAIN
  level: 0
  stage: ""
}
layer {
  name: "data"
  type: "Data"
  top: "data"
  top: "label"
  include {
    phase: TRAIN
  }
  transform_param {
    mirror: true
    crop_size: 227
    mean_file: "/media/wangkeze/ASPL/datasets/webface/webface_mean.binaryproto"
  }
  data_param {
    source: "/media/wangkeze/ASPL/caffe-master/examples/imagenet/webface_finetune_lmdb"
    batch_size: 128
    backend: LMDB
  }
}
layer {
  name: "conv1"
  type: "Convolution"
  bottom: "data"
  top: "conv1"
  param {
    lr_mult: 1
    decay_mult: 1
  }
  param {
    lr_mult: 2
    decay_mult: 0
  }
  convolution_param {
    num_output: 96
    kernel_size: 11
    stride: 4
    weight_filler {
      type: "gaussian"
      std: 0.01
    }
    bias_filler {
      type: "constant"
      value: 0
    }
  }
}
layer {
  name: "relu1"
  type: "ReLU"
  bottom: "conv1"
  top: "conv1"
}
layer {
  name: "norm1"
  type: "LRN"
  bottom: "conv1"
  top: "norm1"
  lrn_param {
    local_size: 5
    alpha: 0.0001
    beta: 0.75
  }
}
layer {
  name: "pool1"
  type: "Pooling"
  bottom: "norm1"
  top: "pool1"
  pooling_param {
    pool: MAX
    kernel_size: 3
    stride: 2
  }
}
layer {
  name: "conv2"
  type: "Convolution"
  bottom: "pool1"
  top: "conv2"
  param {
    lr_mult: 1
    decay_mult: 1
  }
  param {
    lr_mult: 2
    decay_mult: 0
  }
  convolution_param {
    num_output: 256
    pad: 2
    kernel_size: 5
    group: 2
    weight_filler {
      type: "gaussian"
      std: 0.01
    }
    bias_filler {
      type: "constant"
      value: 0.1
    }
  }
}
layer {
  name: "relu2"
  type: "ReLU"
  bottom: "conv2"
  top: "conv2"
}
layer {
  name: "norm2"
  type: "LRN"
  bottom: "conv2"
  top: "norm2"
  lrn_param {
    local_size: 5
    alpha: 0.0001
    beta: 0.75
  }
}
layer {
  name: "pool2"
  type: "Pooling"
  bottom: "norm2"
  top: "pool2"
  pooling_param {
    pool: MAX
    kernel_size: 3
    stride: 2
  }
}
layer {
  name: "conv3"
  type: "Convolution"
  bottom: "pool2"
  top: "conv3"
  param {
    lr_mult: 1
    decay_mult: 1
  }
  param {
    lr_mult: 2
    decay_mult: 0
  }
  convolution_param {
    num_output: 384
    pad: 1
    kernel_size: 3
    weight_filler {
      type: "gaussian"
      std: 0.01
    }
    bias_filler {
      type: "constant"
      value: 0
    }
  }
}
layer {
  name: "relu3"
  type: "ReLU"
  bottom: "conv3"
  top: "conv3"
}
layer {
  name: "conv4"
  type: "Convolution"
  bottom: "conv3"
  top: "conv4"
  param {
    lr_mult: 1
    decay_mult: 1
  }
  param {
    lr_mult: 2
    decay_mult: 0
  }
  convolution_param {
    num_output: 384
    pad: 1
    kernel_size: 3
    group: 2
    weight_filler {
      type: "gaussian"
      std: 0.01
    }
    bias_filler {
      type: "constant"
      value: 0.1
    }
  }
}
layer {
  name: "relu4"
  type: "ReLU"
  bottom: "conv4"
  top: "conv4"
}
layer {
  name: "conv5"
  type: "Convolution"
  bottom: "conv4"
  top: "conv5"
  param {
    lr_mult: 1
    decay_mult: 1
  }
  param {
    lr_mult: 2
    decay_mult: 0
  }
  convolution_param {
    num_output: 256
    pad: 1
    kernel_size: 3
    group: 2
    weight_filler {
      type: "gaussian"
      std: 0.01
    }
    bias_filler {
      type: "constant"
      value: 0.1
    }
  }
}
layer {
  name: "relu5"
  type: "ReLU"
  bottom: "conv5"
  top: "conv5"
}
layer {
  name: "pool5"
  type: "Pooling"
  bottom: "conv5"
  top: "pool5"
  pooling_param {
    pool: MAX
    kernel_size: 3
    stride: 2
  }
}
layer {
  name: "fc6"
  type: "InnerProduct"
  bottom: "pool5"
  top: "fc6"
  param {
    lr_mult: 1
    decay_mult: 1
  }
  param {
    lr_mult: 2
    decay_mult: 0
  }
  inner_product_param {
    num_output: 4096
    weight_filler {
      type: "gaussian"
      std: 0.005
    }
    bias_filler {
      type: "constant"
      value: 0.1
    }
  }
}
layer {
  name: "relu6"
  type: "ReLU"
  bottom: "fc6"
  top: "fc6"
}
layer {
  name: "drop6"
  type: "Dropout"
  bottom: "fc6"
  top: "fc6"
  dropout_param {
    dropout_ratio: 0.5
  }
}
layer {
  name: "fc7"
  type: "InnerProduct"
  bottom: "fc6"
  top: "fc7"
  param {
    lr_mult: 1
    decay_mult: 1
  }
  param {
    lr_mult: 2
    decay_mult: 0
  }
  inner_product_param {
    num_output: 4096
    weight_filler {
      type: "gaussian"
      std: 0.005
    }
    bias_filler {
      type: "constant"
      value: 0.1
    }
  }
}
layer {
  name: "relu7"
  type: "ReLU"
  bottom: "fc7"
  top: "fc7"
}
layer {
  name: "drop7"
  type: "Dropout"
  bottom: "fc7"
  top: "fc7"
  dropout_param {
    dropout_ratio: 0.5
  }
}
layer {
  name: "fc8_sun2"
  type: "InnerProduct"
  bottom: "fc7"
  top: "fc8_sun2"
  param {
    lr_mult: 1
    decay_mult: 1
  }
  param {
    lr_mult: 2
    decay_mult: 0
  }
  inner_product_param {
    num_output: 925
    weight_filler {
      type: "gaussian"
      std: 0.01
    }
    bias_filler {
      type: "constant"
      value: 0
    }
  }
}
layer {
  name: "loss"
  type: "SoftmaxWithLoss"
  bottom: "fc8_sun2"
  bottom: "label"
  top: "loss"
}
I0515 14:33:32.068562  7612 layer_factory.hpp:77] Creating layer data
I0515 14:33:32.068980  7612 net.cpp:100] Creating Layer data
I0515 14:33:32.068992  7612 net.cpp:408] data -> data
I0515 14:33:32.069008  7612 net.cpp:408] data -> label
I0515 14:33:32.069020  7612 data_transformer.cpp:25] Loading mean file from: /media/wangkeze/ASPL/datasets/webface/webface_mean.binaryproto
I0515 14:33:32.069636  7628 db_lmdb.cpp:35] Opened lmdb /media/wangkeze/ASPL/caffe-master/examples/imagenet/webface_finetune_lmdb
I0515 14:33:34.064026  7612 data_layer.cpp:41] output data size: 128,3,227,227
I0515 14:33:34.142982  7612 net.cpp:150] Setting up data
I0515 14:33:34.143015  7612 net.cpp:157] Top shape: 128 3 227 227 (19787136)
I0515 14:33:34.143021  7612 net.cpp:157] Top shape: 128 (128)
I0515 14:33:34.143026  7612 net.cpp:165] Memory required for data: 79149056
I0515 14:33:34.143035  7612 layer_factory.hpp:77] Creating layer conv1
I0515 14:33:34.143079  7612 net.cpp:100] Creating Layer conv1
I0515 14:33:34.143092  7612 net.cpp:434] conv1 <- data
I0515 14:33:34.143111  7612 net.cpp:408] conv1 -> conv1
I0515 14:33:35.635826  7612 net.cpp:150] Setting up conv1
I0515 14:33:35.635851  7612 net.cpp:157] Top shape: 128 96 55 55 (37171200)
I0515 14:33:35.635859  7612 net.cpp:165] Memory required for data: 227833856
I0515 14:33:35.635881  7612 layer_factory.hpp:77] Creating layer relu1
I0515 14:33:35.635897  7612 net.cpp:100] Creating Layer relu1
I0515 14:33:35.635905  7612 net.cpp:434] relu1 <- conv1
I0515 14:33:35.635915  7612 net.cpp:395] relu1 -> conv1 (in-place)
I0515 14:33:35.636046  7612 net.cpp:150] Setting up relu1
I0515 14:33:35.636068  7612 net.cpp:157] Top shape: 128 96 55 55 (37171200)
I0515 14:33:35.636075  7612 net.cpp:165] Memory required for data: 376518656
I0515 14:33:35.636082  7612 layer_factory.hpp:77] Creating layer norm1
I0515 14:33:35.636096  7612 net.cpp:100] Creating Layer norm1
I0515 14:33:35.636103  7612 net.cpp:434] norm1 <- conv1
I0515 14:33:35.636112  7612 net.cpp:408] norm1 -> norm1
I0515 14:33:35.636628  7612 net.cpp:150] Setting up norm1
I0515 14:33:35.636643  7612 net.cpp:157] Top shape: 128 96 55 55 (37171200)
I0515 14:33:35.636651  7612 net.cpp:165] Memory required for data: 525203456
I0515 14:33:35.636672  7612 layer_factory.hpp:77] Creating layer pool1
I0515 14:33:35.636687  7612 net.cpp:100] Creating Layer pool1
I0515 14:33:35.636693  7612 net.cpp:434] pool1 <- norm1
I0515 14:33:35.636703  7612 net.cpp:408] pool1 -> pool1
I0515 14:33:35.636739  7612 net.cpp:150] Setting up pool1
I0515 14:33:35.636749  7612 net.cpp:157] Top shape: 128 96 27 27 (8957952)
I0515 14:33:35.636754  7612 net.cpp:165] Memory required for data: 561035264
I0515 14:33:35.636761  7612 layer_factory.hpp:77] Creating layer conv2
I0515 14:33:35.636775  7612 net.cpp:100] Creating Layer conv2
I0515 14:33:35.636782  7612 net.cpp:434] conv2 <- pool1
I0515 14:33:35.636790  7612 net.cpp:408] conv2 -> conv2
I0515 14:33:35.644731  7612 net.cpp:150] Setting up conv2
I0515 14:33:35.644747  7612 net.cpp:157] Top shape: 128 256 27 27 (23887872)
I0515 14:33:35.644754  7612 net.cpp:165] Memory required for data: 656586752
I0515 14:33:35.644767  7612 layer_factory.hpp:77] Creating layer relu2
I0515 14:33:35.644776  7612 net.cpp:100] Creating Layer relu2
I0515 14:33:35.644785  7612 net.cpp:434] relu2 <- conv2
I0515 14:33:35.644793  7612 net.cpp:395] relu2 -> conv2 (in-place)
I0515 14:33:35.645262  7612 net.cpp:150] Setting up relu2
I0515 14:33:35.645277  7612 net.cpp:157] Top shape: 128 256 27 27 (23887872)
I0515 14:33:35.645283  7612 net.cpp:165] Memory required for data: 752138240
I0515 14:33:35.645289  7612 layer_factory.hpp:77] Creating layer norm2
I0515 14:33:35.645300  7612 net.cpp:100] Creating Layer norm2
I0515 14:33:35.645310  7612 net.cpp:434] norm2 <- conv2
I0515 14:33:35.645319  7612 net.cpp:408] norm2 -> norm2
I0515 14:33:35.645495  7612 net.cpp:150] Setting up norm2
I0515 14:33:35.645508  7612 net.cpp:157] Top shape: 128 256 27 27 (23887872)
I0515 14:33:35.645524  7612 net.cpp:165] Memory required for data: 847689728
I0515 14:33:35.645540  7612 layer_factory.hpp:77] Creating layer pool2
I0515 14:33:35.645553  7612 net.cpp:100] Creating Layer pool2
I0515 14:33:35.645560  7612 net.cpp:434] pool2 <- norm2
I0515 14:33:35.645578  7612 net.cpp:408] pool2 -> pool2
I0515 14:33:35.645611  7612 net.cpp:150] Setting up pool2
I0515 14:33:35.645619  7612 net.cpp:157] Top shape: 128 256 13 13 (5537792)
I0515 14:33:35.645624  7612 net.cpp:165] Memory required for data: 869840896
I0515 14:33:35.645630  7612 layer_factory.hpp:77] Creating layer conv3
I0515 14:33:35.645642  7612 net.cpp:100] Creating Layer conv3
I0515 14:33:35.645649  7612 net.cpp:434] conv3 <- pool2
I0515 14:33:35.645658  7612 net.cpp:408] conv3 -> conv3
I0515 14:33:35.663777  7612 net.cpp:150] Setting up conv3
I0515 14:33:35.663792  7612 net.cpp:157] Top shape: 128 384 13 13 (8306688)
I0515 14:33:35.663800  7612 net.cpp:165] Memory required for data: 903067648
I0515 14:33:35.663812  7612 layer_factory.hpp:77] Creating layer relu3
I0515 14:33:35.663825  7612 net.cpp:100] Creating Layer relu3
I0515 14:33:35.663833  7612 net.cpp:434] relu3 <- conv3
I0515 14:33:35.663842  7612 net.cpp:395] relu3 -> conv3 (in-place)
I0515 14:33:35.663967  7612 net.cpp:150] Setting up relu3
I0515 14:33:35.663988  7612 net.cpp:157] Top shape: 128 384 13 13 (8306688)
I0515 14:33:35.663995  7612 net.cpp:165] Memory required for data: 936294400
I0515 14:33:35.664011  7612 layer_factory.hpp:77] Creating layer conv4
I0515 14:33:35.664032  7612 net.cpp:100] Creating Layer conv4
I0515 14:33:35.664042  7612 net.cpp:434] conv4 <- conv3
I0515 14:33:35.664062  7612 net.cpp:408] conv4 -> conv4
I0515 14:33:35.678647  7612 net.cpp:150] Setting up conv4
I0515 14:33:35.678663  7612 net.cpp:157] Top shape: 128 384 13 13 (8306688)
I0515 14:33:35.678669  7612 net.cpp:165] Memory required for data: 969521152
I0515 14:33:35.678680  7612 layer_factory.hpp:77] Creating layer relu4
I0515 14:33:35.678690  7612 net.cpp:100] Creating Layer relu4
I0515 14:33:35.678702  7612 net.cpp:434] relu4 <- conv4
I0515 14:33:35.678711  7612 net.cpp:395] relu4 -> conv4 (in-place)
I0515 14:33:35.678858  7612 net.cpp:150] Setting up relu4
I0515 14:33:35.678881  7612 net.cpp:157] Top shape: 128 384 13 13 (8306688)
I0515 14:33:35.678900  7612 net.cpp:165] Memory required for data: 1002747904
I0515 14:33:35.678907  7612 layer_factory.hpp:77] Creating layer conv5
I0515 14:33:35.678933  7612 net.cpp:100] Creating Layer conv5
I0515 14:33:35.678941  7612 net.cpp:434] conv5 <- conv4
I0515 14:33:35.678951  7612 net.cpp:408] conv5 -> conv5
I0515 14:33:35.689424  7612 net.cpp:150] Setting up conv5
I0515 14:33:35.689437  7612 net.cpp:157] Top shape: 128 256 13 13 (5537792)
I0515 14:33:35.689455  7612 net.cpp:165] Memory required for data: 1024899072
I0515 14:33:35.689492  7612 layer_factory.hpp:77] Creating layer relu5
I0515 14:33:35.689502  7612 net.cpp:100] Creating Layer relu5
I0515 14:33:35.689512  7612 net.cpp:434] relu5 <- conv5
I0515 14:33:35.689520  7612 net.cpp:395] relu5 -> conv5 (in-place)
I0515 14:33:35.689692  7612 net.cpp:150] Setting up relu5
I0515 14:33:35.689708  7612 net.cpp:157] Top shape: 128 256 13 13 (5537792)
I0515 14:33:35.689713  7612 net.cpp:165] Memory required for data: 1047050240
I0515 14:33:35.689718  7612 layer_factory.hpp:77] Creating layer pool5
I0515 14:33:35.689724  7612 net.cpp:100] Creating Layer pool5
I0515 14:33:35.689729  7612 net.cpp:434] pool5 <- conv5
I0515 14:33:35.689734  7612 net.cpp:408] pool5 -> pool5
I0515 14:33:35.689765  7612 net.cpp:150] Setting up pool5
I0515 14:33:35.689771  7612 net.cpp:157] Top shape: 128 256 6 6 (1179648)
I0515 14:33:35.689774  7612 net.cpp:165] Memory required for data: 1051768832
I0515 14:33:35.689779  7612 layer_factory.hpp:77] Creating layer fc6
I0515 14:33:35.689787  7612 net.cpp:100] Creating Layer fc6
I0515 14:33:35.689791  7612 net.cpp:434] fc6 <- pool5
I0515 14:33:35.689797  7612 net.cpp:408] fc6 -> fc6
I0515 14:33:36.413166  7612 net.cpp:150] Setting up fc6
I0515 14:33:36.413195  7612 net.cpp:157] Top shape: 128 4096 (524288)
I0515 14:33:36.413202  7612 net.cpp:165] Memory required for data: 1053865984
I0515 14:33:36.413213  7612 layer_factory.hpp:77] Creating layer relu6
I0515 14:33:36.413226  7612 net.cpp:100] Creating Layer relu6
I0515 14:33:36.413233  7612 net.cpp:434] relu6 <- fc6
I0515 14:33:36.413244  7612 net.cpp:395] relu6 -> fc6 (in-place)
I0515 14:33:36.413885  7612 net.cpp:150] Setting up relu6
I0515 14:33:36.413898  7612 net.cpp:157] Top shape: 128 4096 (524288)
I0515 14:33:36.413904  7612 net.cpp:165] Memory required for data: 1055963136
I0515 14:33:36.413911  7612 layer_factory.hpp:77] Creating layer drop6
I0515 14:33:36.413921  7612 net.cpp:100] Creating Layer drop6
I0515 14:33:36.413928  7612 net.cpp:434] drop6 <- fc6
I0515 14:33:36.413940  7612 net.cpp:395] drop6 -> fc6 (in-place)
I0515 14:33:36.413967  7612 net.cpp:150] Setting up drop6
I0515 14:33:36.413976  7612 net.cpp:157] Top shape: 128 4096 (524288)
I0515 14:33:36.413982  7612 net.cpp:165] Memory required for data: 1058060288
I0515 14:33:36.413990  7612 layer_factory.hpp:77] Creating layer fc7
I0515 14:33:36.414000  7612 net.cpp:100] Creating Layer fc7
I0515 14:33:36.414008  7612 net.cpp:434] fc7 <- fc6
I0515 14:33:36.414017  7612 net.cpp:408] fc7 -> fc7
I0515 14:33:36.735440  7612 net.cpp:150] Setting up fc7
I0515 14:33:36.735467  7612 net.cpp:157] Top shape: 128 4096 (524288)
I0515 14:33:36.735474  7612 net.cpp:165] Memory required for data: 1060157440
I0515 14:33:36.735486  7612 layer_factory.hpp:77] Creating layer relu7
I0515 14:33:36.735497  7612 net.cpp:100] Creating Layer relu7
I0515 14:33:36.735505  7612 net.cpp:434] relu7 <- fc7
I0515 14:33:36.735515  7612 net.cpp:395] relu7 -> fc7 (in-place)
I0515 14:33:36.735702  7612 net.cpp:150] Setting up relu7
I0515 14:33:36.735721  7612 net.cpp:157] Top shape: 128 4096 (524288)
I0515 14:33:36.735728  7612 net.cpp:165] Memory required for data: 1062254592
I0515 14:33:36.735733  7612 layer_factory.hpp:77] Creating layer drop7
I0515 14:33:36.735743  7612 net.cpp:100] Creating Layer drop7
I0515 14:33:36.735749  7612 net.cpp:434] drop7 <- fc7
I0515 14:33:36.735757  7612 net.cpp:395] drop7 -> fc7 (in-place)
I0515 14:33:36.735780  7612 net.cpp:150] Setting up drop7
I0515 14:33:36.735788  7612 net.cpp:157] Top shape: 128 4096 (524288)
I0515 14:33:36.735806  7612 net.cpp:165] Memory required for data: 1064351744
I0515 14:33:36.735813  7612 layer_factory.hpp:77] Creating layer fc8_sun2
I0515 14:33:36.735824  7612 net.cpp:100] Creating Layer fc8_sun2
I0515 14:33:36.735834  7612 net.cpp:434] fc8_sun2 <- fc7
I0515 14:33:36.735842  7612 net.cpp:408] fc8_sun2 -> fc8_sun2
I0515 14:33:36.808828  7612 net.cpp:150] Setting up fc8_sun2
I0515 14:33:36.808859  7612 net.cpp:157] Top shape: 128 925 (118400)
I0515 14:33:36.808866  7612 net.cpp:165] Memory required for data: 1064825344
I0515 14:33:36.808877  7612 layer_factory.hpp:77] Creating layer loss
I0515 14:33:36.808890  7612 net.cpp:100] Creating Layer loss
I0515 14:33:36.808897  7612 net.cpp:434] loss <- fc8_sun2
I0515 14:33:36.808912  7612 net.cpp:434] loss <- label
I0515 14:33:36.808923  7612 net.cpp:408] loss -> loss
I0515 14:33:36.808943  7612 layer_factory.hpp:77] Creating layer loss
…
I0515 14:33:36.810592  7612 net.cpp:322] The NetState phase (1) differed from the phase (0) specified by a rule in layer data
I0515 14:33:36.810740  7612 net.cpp:58] Initializing net from parameters: 
name: "AlexNet"
state {
  phase: TEST
}
layer {
  name: "data"
  type: "Data"
  top: "data"
  top: "label"
  include {
    phase: TEST
  }
  transform_param {
    mirror: false
    crop_size: 227
    mean_file: "/media/wangkeze/ASPL/datasets/webface/webface_mean.binaryproto"
  }
  data_param {
    source: "/media/wangkeze/ASPL/caffe-master/examples/imagenet/webface_test_lmdb"
    batch_size: 256
    backend: LMDB
  }
}
layer {
  name: "conv1"
  type: "Convolution"
  bottom: "data"
  top: "conv1"
  param {
    lr_mult: 1
    decay_mult: 1
  }
  param {
    lr_mult: 2
    decay_mult: 0
  }
  convolution_param {
    num_output: 96
    kernel_size: 11
    stride: 4
    weight_filler {
      type: "gaussian"
      std: 0.01
    }
    bias_filler {
      type: "constant"
      value: 0
    }
  }
}
layer {
  name: "relu1"
  type: "ReLU"
  bottom: "conv1"
  top: "conv1"
}
layer {
  name: "norm1"
  type: "LRN"
  bottom: "conv1"
  top: "norm1"
  lrn_param {
    local_size: 5
    alpha: 0.0001
    beta: 0.75
  }
}
layer {
  name: "pool1"
  type: "Pooling"
  bottom: "norm1"
  top: "pool1"
  pooling_param {
    pool: MAX
    kernel_size: 3
    stride: 2
  }
}
layer {
  name: "conv2"
  type: "Convolution"
  bottom: "pool1"
  top: "conv2"
  param {
    lr_mult: 1
    decay_mult: 1
  }
  param {
    lr_mult: 2
    decay_mult: 0
  }
  convolution_param {
    num_output: 256
    pad: 2
    kernel_size: 5
    group: 2
    weight_filler {
      type: "gaussian"
      std: 0.01
    }
    bias_filler {
      type: "constant"
      value: 0.1
    }
  }
}
layer {
  name: "relu2"
  type: "ReLU"
  bottom: "conv2"
  top: "conv2"
}
layer {
  name: "norm2"
  type: "LRN"
  bottom: "conv2"
  top: "norm2"
  lrn_param {
    local_size: 5
    alpha: 0.0001
    beta: 0.75
  }
}
layer {
  name: "pool2"
  type: "Pooling"
  bottom: "norm2"
  top: "pool2"
  pooling_param {
    pool: MAX
    kernel_size: 3
    stride: 2
  }
}
layer {
  name: "conv3"
  type: "Convolution"
  bottom: "pool2"
  top: "conv3"
  param {
    lr_mult: 1
    decay_mult: 1
  }
  param {
    lr_mult: 2
    decay_mult: 0
  }
  convolution_param {
    num_output: 384
    pad: 1
    kernel_size: 3
    weight_filler {
      type: "gaussian"
      std: 0.01
    }
    bias_filler {
      type: "constant"
      value: 0
    }
  }
}
layer {
  name: "relu3"
  type: "ReLU"
  bottom: "conv3"
  top: "conv3"
}
layer {
  name: "conv4"
  type: "Convolution"
  bottom: "conv3"
  top: "conv4"
  param {
    lr_mult: 1
    decay_mult: 1
  }
  param {
    lr_mult: 2
    decay_mult: 0
  }
  convolution_param {
    num_output: 384
    pad: 1
    kernel_size: 3
    group: 2
    weight_filler {
      type: "gaussian"
      std: 0.01
    }
    bias_filler {
      type: "constant"
      value: 0.1
    }
  }
}
layer {
  name: "relu4"
  type: "ReLU"
  bottom: "conv4"
  top: "conv4"
}
layer {
  name: "conv5"
  type: "Convolution"
  bottom: "conv4"
  top: "conv5"
  param {
    lr_mult: 1
    decay_mult: 1
  }
  param {
    lr_mult: 2
    decay_mult: 0
  }
  convolution_param {
    num_output: 256
    pad: 1
    kernel_size: 3
    group: 2
    weight_filler {
      type: "gaussian"
      std: 0.01
    }
    bias_filler {
      type: "constant"
      value: 0.1
    }
  }
}
layer {
  name: "relu5"
  type: "ReLU"
  bottom: "conv5"
  top: "conv5"
}
layer {
  name: "pool5"
  type: "Pooling"
  bottom: "conv5"
  top: "pool5"
  pooling_param {
    pool: MAX
    kernel_size: 3
    stride: 2
  }
}
layer {
  name: "fc6"
  type: "InnerProduct"
  bottom: "pool5"
  top: "fc6"
  param {
    lr_mult: 1
    decay_mult: 1
  }
  param {
    lr_mult: 2
    decay_mult: 0
  }
  inner_product_param {
    num_output: 4096
    weight_filler {
      type: "gaussian"
      std: 0.005
    }
    bias_filler {
      type: "constant"
      value: 0.1
    }
  }
}
layer {
  name: "relu6"
  type: "ReLU"
  bottom: "fc6"
  top: "fc6"
}
layer {
  name: "drop6"
  type: "Dropout"
  bottom: "fc6"
  top: "fc6"
  dropout_param {
    dropout_ratio: 0.5
  }
}
layer {
  name: "fc7"
  type: "InnerProduct"
  bottom: "fc6"
  top: "fc7"
  param {
    lr_mult: 1
    decay_mult: 1
  }
  param {
    lr_mult: 2
    decay_mult: 0
  }
  inner_product_param {
    num_output: 4096
    weight_filler {
      type: "gaussian"
      std: 0.005
    }
    bias_filler {
      type: "constant"
      value: 0.1
    }
  }
}
layer {
  name: "relu7"
  type: "ReLU"
  bottom: "fc7"
  top: "fc7"
}
layer {
  name: "drop7"
  type: "Dropout"
  bottom: "fc7"
  top: "fc7"
  dropout_param {
    dropout_ratio: 0.5
  }
}
layer {
  name: "fc8_sun2"
  type: "InnerProduct"
  bottom: "fc7"
  top: "fc8_sun2"
  param {
    lr_mult: 1
    decay_mult: 1
  }
  param {
    lr_mult: 2
    decay_mult: 0
  }
  inner_product_param {
    num_output: 925
    weight_filler {
      type: "gaussian"
      std: 0.01
    }
    bias_filler {
      type: "constant"
      value: 0
    }
  }
}
layer {
  name: "accuracy"
  type: "Accuracy"
  bottom: "fc8_sun2"
  bottom: "label"
  top: "accuracy"
  include {
    phase: TEST
  }
}
layer {
  name: "loss"
  type: "SoftmaxWithLoss"
  bottom: "fc8_sun2"
  bottom: "label"
  top: "loss"
}
I0515 14:33:36.810859  7612 layer_factory.hpp:77] Creating layer data
I0515 14:33:36.811077  7612 net.cpp:100] Creating Layer data
I0515 14:33:36.811089  7612 net.cpp:408] data -> data
I0515 14:33:36.811101  7612 net.cpp:408] data -> label
I0515 14:33:36.811112  7612 data_transformer.cpp:25] Loading mean file from: /media/wangkeze/ASPL/datasets/webface/webface_mean.binaryproto
I0515 14:33:36.811765  7630 db_lmdb.cpp:35] Opened lmdb /media/wangkeze/ASPL/caffe-master/examples/imagenet/webface_test_lmdb
I0515 14:33:36.812444  7612 data_layer.cpp:41] output data size: 256,3,227,227
I0515 14:33:36.977591  7612 net.cpp:150] Setting up data
I0515 14:33:36.977618  7612 net.cpp:157] Top shape: 256 3 227 227 (39574272)
I0515 14:33:36.977627  7612 net.cpp:157] Top shape: 256 (256)
I0515 14:33:36.977643  7612 net.cpp:165] Memory required for data: 158298112
I0515 14:33:36.977650  7612 layer_factory.hpp:77] Creating layer label_data_1_split
I0515 14:33:36.977666  7612 net.cpp:100] Creating Layer label_data_1_split
I0515 14:33:36.977674  7612 net.cpp:434] label_data_1_split <- label
I0515 14:33:36.977687  7612 net.cpp:408] label_data_1_split -> label_data_1_split_0
I0515 14:33:36.977704  7612 net.cpp:408] label_data_1_split -> label_data_1_split_1
I0515 14:33:36.977754  7612 net.cpp:150] Setting up label_data_1_split
I0515 14:33:36.977766  7612 net.cpp:157] Top shape: 256 (256)
I0515 14:33:36.977774  7612 net.cpp:157] Top shape: 256 (256)
I0515 14:33:36.977792  7612 net.cpp:165] Memory required for data: 158300160
I0515 14:33:36.977798  7612 layer_factory.hpp:77] Creating layer conv1
I0515 14:33:36.977814  7612 net.cpp:100] Creating Layer conv1
I0515 14:33:36.977823  7612 net.cpp:434] conv1 <- data
I0515 14:33:36.977831  7612 net.cpp:408] conv1 -> conv1
I0515 14:33:36.991622  7612 net.cpp:150] Setting up conv1
I0515 14:33:36.991638  7612 net.cpp:157] Top shape: 256 96 55 55 (74342400)
I0515 14:33:36.991647  7612 net.cpp:165] Memory required for data: 455669760
I0515 14:33:36.991672  7612 layer_factory.hpp:77] Creating layer relu1
I0515 14:33:36.991683  7612 net.cpp:100] Creating Layer relu1
I0515 14:33:36.991690  7612 net.cpp:434] relu1 <- conv1
I0515 14:33:36.991699  7612 net.cpp:395] relu1 -> conv1 (in-place)
I0515 14:33:36.991858  7612 net.cpp:150] Setting up relu1
I0515 14:33:36.991870  7612 net.cpp:157] Top shape: 256 96 55 55 (74342400)
I0515 14:33:36.991885  7612 net.cpp:165] Memory required for data: 753039360
I0515 14:33:36.991902  7612 layer_factory.hpp:77] Creating layer norm1
I0515 14:33:36.991914  7612 net.cpp:100] Creating Layer norm1
I0515 14:33:36.991931  7612 net.cpp:434] norm1 <- conv1
I0515 14:33:36.991940  7612 net.cpp:408] norm1 -> norm1
I0515 14:33:36.992488  7612 net.cpp:150] Setting up norm1
I0515 14:33:36.992501  7612 net.cpp:157] Top shape: 256 96 55 55 (74342400)
I0515 14:33:36.992507  7612 net.cpp:165] Memory required for data: 1050408960
I0515 14:33:36.992524  7612 layer_factory.hpp:77] Creating layer pool1
I0515 14:33:36.992535  7612 net.cpp:100] Creating Layer pool1
I0515 14:33:36.992557  7612 net.cpp:434] pool1 <- norm1
I0515 14:33:36.992566  7612 net.cpp:408] pool1 -> pool1
I0515 14:33:36.992614  7612 net.cpp:150] Setting up pool1
I0515 14:33:36.992622  7612 net.cpp:157] Top shape: 256 96 27 27 (17915904)
I0515 14:33:36.992638  7612 net.cpp:165] Memory required for data: 1122072576
I0515 14:33:36.992645  7612 layer_factory.hpp:77] Creating layer conv2
I0515 14:33:36.992658  7612 net.cpp:100] Creating Layer conv2
I0515 14:33:36.992664  7612 net.cpp:434] conv2 <- pool1
I0515 14:33:36.992676  7612 net.cpp:408] conv2 -> conv2
I0515 14:33:37.000370  7612 net.cpp:150] Setting up conv2
I0515 14:33:37.000406  7612 net.cpp:157] Top shape: 256 256 27 27 (47775744)
I0515 14:33:37.000413  7612 net.cpp:165] Memory required for data: 1313175552
I0515 14:33:37.000438  7612 layer_factory.hpp:77] Creating layer relu2
I0515 14:33:37.000452  7612 net.cpp:100] Creating Layer relu2
I0515 14:33:37.000464  7612 net.cpp:434] relu2 <- conv2
I0515 14:33:37.000475  7612 net.cpp:395] relu2 -> conv2 (in-place)
I0515 14:33:37.001008  7612 net.cpp:150] Setting up relu2
I0515 14:33:37.001020  7612 net.cpp:157] Top shape: 256 256 27 27 (47775744)
I0515 14:33:37.001027  7612 net.cpp:165] Memory required for data: 1504278528
I0515 14:33:37.001044  7612 layer_factory.hpp:77] Creating layer norm2
I0515 14:33:37.001060  7612 net.cpp:100] Creating Layer norm2
I0515 14:33:37.001066  7612 net.cpp:434] norm2 <- conv2
I0515 14:33:37.001076  7612 net.cpp:408] norm2 -> norm2
I0515 14:33:37.001246  7612 net.cpp:150] Setting up norm2
I0515 14:33:37.001269  7612 net.cpp:157] Top shape: 256 256 27 27 (47775744)
I0515 14:33:37.001276  7612 net.cpp:165] Memory required for data: 1695381504
I0515 14:33:37.001293  7612 layer_factory.hpp:77] Creating layer pool2
I0515 14:33:37.001303  7612 net.cpp:100] Creating Layer pool2
I0515 14:33:37.001312  7612 net.cpp:434] pool2 <- norm2
I0515 14:33:37.001320  7612 net.cpp:408] pool2 -> pool2
I0515 14:33:37.001358  7612 net.cpp:150] Setting up pool2
I0515 14:33:37.001368  7612 net.cpp:157] Top shape: 256 256 13 13 (11075584)
I0515 14:33:37.001372  7612 net.cpp:165] Memory required for data: 1739683840
I0515 14:33:37.001379  7612 layer_factory.hpp:77] Creating layer conv3
I0515 14:33:37.001394  7612 net.cpp:100] Creating Layer conv3
I0515 14:33:37.001401  7612 net.cpp:434] conv3 <- pool2
I0515 14:33:37.001410  7612 net.cpp:408] conv3 -> conv3
I0515 14:33:37.020334  7612 net.cpp:150] Setting up conv3
I0515 14:33:37.020359  7612 net.cpp:157] Top shape: 256 384 13 13 (16613376)
I0515 14:33:37.020365  7612 net.cpp:165] Memory required for data: 1806137344
I0515 14:33:37.020392  7612 layer_factory.hpp:77] Creating layer relu3
I0515 14:33:37.020406  7612 net.cpp:100] Creating Layer relu3
I0515 14:33:37.020414  7612 net.cpp:434] relu3 <- conv3
I0515 14:33:37.020423  7612 net.cpp:395] relu3 -> conv3 (in-place)
I0515 14:33:37.020576  7612 net.cpp:150] Setting up relu3
I0515 14:33:37.020591  7612 net.cpp:157] Top shape: 256 384 13 13 (16613376)
I0515 14:33:37.020597  7612 net.cpp:165] Memory required for data: 1872590848
I0515 14:33:37.020603  7612 layer_factory.hpp:77] Creating layer conv4
I0515 14:33:37.020618  7612 net.cpp:100] Creating Layer conv4
I0515 14:33:37.020627  7612 net.cpp:434] conv4 <- conv3
I0515 14:33:37.020648  7612 net.cpp:408] conv4 -> conv4
I0515 14:33:37.036242  7612 net.cpp:150] Setting up conv4
I0515 14:33:37.036264  7612 net.cpp:157] Top shape: 256 384 13 13 (16613376)
I0515 14:33:37.036272  7612 net.cpp:165] Memory required for data: 1939044352
I0515 14:33:37.036294  7612 layer_factory.hpp:77] Creating layer relu4
I0515 14:33:37.036309  7612 net.cpp:100] Creating Layer relu4
I0515 14:33:37.036319  7612 net.cpp:434] relu4 <- conv4
I0515 14:33:37.036329  7612 net.cpp:395] relu4 -> conv4 (in-place)
I0515 14:33:37.036491  7612 net.cpp:150] Setting up relu4
I0515 14:33:37.036507  7612 net.cpp:157] Top shape: 256 384 13 13 (16613376)
I0515 14:33:37.036514  7612 net.cpp:165] Memory required for data: 2005497856
I0515 14:33:37.036521  7612 layer_factory.hpp:77] Creating layer conv5
I0515 14:33:37.036547  7612 net.cpp:100] Creating Layer conv5
I0515 14:33:37.036556  7612 net.cpp:434] conv5 <- conv4
I0515 14:33:37.036574  7612 net.cpp:408] conv5 -> conv5
I0515 14:33:37.047559  7612 net.cpp:150] Setting up conv5
I0515 14:33:37.047582  7612 net.cpp:157] Top shape: 256 256 13 13 (11075584)
I0515 14:33:37.047590  7612 net.cpp:165] Memory required for data: 2049800192
I0515 14:33:37.047616  7612 layer_factory.hpp:77] Creating layer relu5
I0515 14:33:37.047628  7612 net.cpp:100] Creating Layer relu5
I0515 14:33:37.047636  7612 net.cpp:434] relu5 <- conv5
I0515 14:33:37.047646  7612 net.cpp:395] relu5 -> conv5 (in-place)
I0515 14:33:37.047807  7612 net.cpp:150] Setting up relu5
I0515 14:33:37.047825  7612 net.cpp:157] Top shape: 256 256 13 13 (11075584)
I0515 14:33:37.047832  7612 net.cpp:165] Memory required for data: 2094102528
I0515 14:33:37.047847  7612 layer_factory.hpp:77] Creating layer pool5
I0515 14:33:37.047869  7612 net.cpp:100] Creating Layer pool5
I0515 14:33:37.047888  7612 net.cpp:434] pool5 <- conv5
I0515 14:33:37.047897  7612 net.cpp:408] pool5 -> pool5
I0515 14:33:37.047945  7612 net.cpp:150] Setting up pool5
I0515 14:33:37.047953  7612 net.cpp:157] Top shape: 256 256 6 6 (2359296)
I0515 14:33:37.047960  7612 net.cpp:165] Memory required for data: 2103539712
I0515 14:33:37.047966  7612 layer_factory.hpp:77] Creating layer fc6
I0515 14:33:37.047977  7612 net.cpp:100] Creating Layer fc6
I0515 14:33:37.047987  7612 net.cpp:434] fc6 <- pool5
I0515 14:33:37.047996  7612 net.cpp:408] fc6 -> fc6
I0515 14:33:37.787279  7612 net.cpp:150] Setting up fc6
I0515 14:33:37.787309  7612 net.cpp:157] Top shape: 256 4096 (1048576)
I0515 14:33:37.787315  7612 net.cpp:165] Memory required for data: 2107734016
I0515 14:33:37.787328  7612 layer_factory.hpp:77] Creating layer relu6
I0515 14:33:37.787339  7612 net.cpp:100] Creating Layer relu6
I0515 14:33:37.787348  7612 net.cpp:434] relu6 <- fc6
I0515 14:33:37.787358  7612 net.cpp:395] relu6 -> fc6 (in-place)
I0515 14:33:37.787562  7612 net.cpp:150] Setting up relu6
I0515 14:33:37.787573  7612 net.cpp:157] Top shape: 256 4096 (1048576)
I0515 14:33:37.787578  7612 net.cpp:165] Memory required for data: 2111928320
I0515 14:33:37.787585  7612 layer_factory.hpp:77] Creating layer drop6
I0515 14:33:37.787595  7612 net.cpp:100] Creating Layer drop6
I0515 14:33:37.787606  7612 net.cpp:434] drop6 <- fc6
I0515 14:33:37.787613  7612 net.cpp:395] drop6 -> fc6 (in-place)
I0515 14:33:37.787639  7612 net.cpp:150] Setting up drop6
I0515 14:33:37.787647  7612 net.cpp:157] Top shape: 256 4096 (1048576)
I0515 14:33:37.787653  7612 net.cpp:165] Memory required for data: 2116122624
I0515 14:33:37.787659  7612 layer_factory.hpp:77] Creating layer fc7
I0515 14:33:37.787669  7612 net.cpp:100] Creating Layer fc7
I0515 14:33:37.787677  7612 net.cpp:434] fc7 <- fc6
I0515 14:33:37.787685  7612 net.cpp:408] fc7 -> fc7
I0515 14:33:38.109239  7612 net.cpp:150] Setting up fc7
I0515 14:33:38.109268  7612 net.cpp:157] Top shape: 256 4096 (1048576)
I0515 14:33:38.109274  7612 net.cpp:165] Memory required for data: 2120316928
I0515 14:33:38.109287  7612 layer_factory.hpp:77] Creating layer relu7
I0515 14:33:38.109298  7612 net.cpp:100] Creating Layer relu7
I0515 14:33:38.109307  7612 net.cpp:434] relu7 <- fc7
I0515 14:33:38.109323  7612 net.cpp:395] relu7 -> fc7 (in-place)
I0515 14:33:38.109992  7612 net.cpp:150] Setting up relu7
I0515 14:33:38.110004  7612 net.cpp:157] Top shape: 256 4096 (1048576)
I0515 14:33:38.110010  7612 net.cpp:165] Memory required for data: 2124511232
I0515 14:33:38.110018  7612 layer_factory.hpp:77] Creating layer drop7
I0515 14:33:38.110028  7612 net.cpp:100] Creating Layer drop7
I0515 14:33:38.110033  7612 net.cpp:434] drop7 <- fc7
I0515 14:33:38.110043  7612 net.cpp:395] drop7 -> fc7 (in-place)
I0515 14:33:38.110069  7612 net.cpp:150] Setting up drop7
I0515 14:33:38.110080  7612 net.cpp:157] Top shape: 256 4096 (1048576)
I0515 14:33:38.110085  7612 net.cpp:165] Memory required for data: 2128705536
I0515 14:33:38.110101  7612 layer_factory.hpp:77] Creating layer fc8_sun2
I0515 14:33:38.110112  7612 net.cpp:100] Creating Layer fc8_sun2
I0515 14:33:38.110121  7612 net.cpp:434] fc8_sun2 <- fc7
I0515 14:33:38.110129  7612 net.cpp:408] fc8_sun2 -> fc8_sun2
I0515 14:33:38.183181  7612 net.cpp:150] Setting up fc8_sun2
I0515 14:33:38.183209  7612 net.cpp:157] Top shape: 256 925 (236800)
I0515 14:33:38.183215  7612 net.cpp:165] Memory required for data: 2129652736
I0515 14:33:38.183228  7612 layer_factory.hpp:77] Creating layer fc8_sun2_fc8_sun2_0_split
I0515 14:33:38.183238  7612 net.cpp:100] Creating Layer fc8_sun2_fc8_sun2_0_split
I0515 14:33:38.183248  7612 net.cpp:434] fc8_sun2_fc8_sun2_0_split <- fc8_sun2
I0515 14:33:38.183269  7612 net.cpp:408] fc8_sun2_fc8_sun2_0_split -> fc8_sun2_fc8_sun2_0_split_0
I0515 14:33:38.183282  7612 net.cpp:408] fc8_sun2_fc8_sun2_0_split -> fc8_sun2_fc8_sun2_0_split_1
I0515 14:33:38.183318  7612 net.cpp:150] Setting up fc8_sun2_fc8_sun2_0_split
I0515 14:33:38.183327  7612 net.cpp:157] Top shape: 256 925 (236800)
I0515 14:33:38.183334  7612 net.cpp:157] Top shape: 256 925 (236800)
I0515 14:33:38.183341  7612 net.cpp:165] Memory required for data: 2131547136
I0515 14:33:38.183347  7612 layer_factory.hpp:77] Creating layer accuracy
I0515 14:33:38.183360  7612 net.cpp:100] Creating Layer accuracy
I0515 14:33:38.183367  7612 net.cpp:434] accuracy <- fc8_sun2_fc8_sun2_0_split_0
I0515 14:33:38.183375  7612 net.cpp:434] accuracy <- label_data_1_split_0
I0515 14:33:38.183387  7612 net.cpp:408] accuracy -> accuracy
…
