…
I0523 10:18:48.013736  2600 net.cpp:322] The NetState phase (0) differed from the phase (1) specified by a rule in layer accuracy
I0523 10:18:48.013860  2600 net.cpp:58] Initializing net from parameters: 
name: "AlexNet"
state {
  phase: TRAIN
  level: 0
  stage: ""
}
layer {
  name: "data"
  type: "Data"
  top: "data"
  top: "label"
  include {
    phase: TRAIN
  }
  transform_param {
    mirror: true
    crop_size: 227
    mean_file: "/media/wangkeze/ASPL/datasets/webface/webface_mean.binaryproto"
  }
  data_param {
    source: "/media/wangkeze/ASPL/caffe-master/examples/imagenet/webface_finetune_lmdb"
    batch_size: 128
    backend: LMDB
  }
}
layer {
  name: "conv1"
  type: "Convolution"
  bottom: "data"
  top: "conv1"
  param {
    lr_mult: 1
    decay_mult: 1
  }
  param {
    lr_mult: 2
    decay_mult: 0
  }
  convolution_param {
    num_output: 96
    kernel_size: 11
    stride: 4
    weight_filler {
      type: "gaussian"
      std: 0.01
    }
    bias_filler {
      type: "constant"
      value: 0
    }
  }
}
layer {
  name: "relu1"
  type: "ReLU"
  bottom: "conv1"
  top: "conv1"
}
layer {
  name: "norm1"
  type: "LRN"
  bottom: "conv1"
  top: "norm1"
  lrn_param {
    local_size: 5
    alpha: 0.0001
    beta: 0.75
  }
}
layer {
  name: "pool1"
  type: "Pooling"
  bottom: "norm1"
  top: "pool1"
  pooling_param {
    pool: MAX
    kernel_size: 3
    stride: 2
  }
}
layer {
  name: "conv2"
  type: "Convolution"
  bottom: "pool1"
  top: "conv2"
  param {
    lr_mult: 1
    decay_mult: 1
  }
  param {
    lr_mult: 2
    decay_mult: 0
  }
  convolution_param {
    num_output: 256
    pad: 2
    kernel_size: 5
    group: 2
    weight_filler {
      type: "gaussian"
      std: 0.01
    }
    bias_filler {
      type: "constant"
      value: 0.1
    }
  }
}
layer {
  name: "relu2"
  type: "ReLU"
  bottom: "conv2"
  top: "conv2"
}
layer {
  name: "norm2"
  type: "LRN"
  bottom: "conv2"
  top: "norm2"
  lrn_param {
    local_size: 5
    alpha: 0.0001
    beta: 0.75
  }
}
layer {
  name: "pool2"
  type: "Pooling"
  bottom: "norm2"
  top: "pool2"
  pooling_param {
    pool: MAX
    kernel_size: 3
    stride: 2
  }
}
layer {
  name: "conv3"
  type: "Convolution"
  bottom: "pool2"
  top: "conv3"
  param {
    lr_mult: 1
    decay_mult: 1
  }
  param {
    lr_mult: 2
    decay_mult: 0
  }
  convolution_param {
    num_output: 384
    pad: 1
    kernel_size: 3
    weight_filler {
      type: "gaussian"
      std: 0.01
    }
    bias_filler {
      type: "constant"
      value: 0
    }
  }
}
layer {
  name: "relu3"
  type: "ReLU"
  bottom: "conv3"
  top: "conv3"
}
layer {
  name: "conv4"
  type: "Convolution"
  bottom: "conv3"
  top: "conv4"
  param {
    lr_mult: 1
    decay_mult: 1
  }
  param {
    lr_mult: 2
    decay_mult: 0
  }
  convolution_param {
    num_output: 384
    pad: 1
    kernel_size: 3
    group: 2
    weight_filler {
      type: "gaussian"
      std: 0.01
    }
    bias_filler {
      type: "constant"
      value: 0.1
    }
  }
}
layer {
  name: "relu4"
  type: "ReLU"
  bottom: "conv4"
  top: "conv4"
}
layer {
  name: "conv5"
  type: "Convolution"
  bottom: "conv4"
  top: "conv5"
  param {
    lr_mult: 1
    decay_mult: 1
  }
  param {
    lr_mult: 2
    decay_mult: 0
  }
  convolution_param {
    num_output: 256
    pad: 1
    kernel_size: 3
    group: 2
    weight_filler {
      type: "gaussian"
      std: 0.01
    }
    bias_filler {
      type: "constant"
      value: 0.1
    }
  }
}
layer {
  name: "relu5"
  type: "ReLU"
  bottom: "conv5"
  top: "conv5"
}
layer {
  name: "pool5"
  type: "Pooling"
  bottom: "conv5"
  top: "pool5"
  pooling_param {
    pool: MAX
    kernel_size: 3
    stride: 2
  }
}
layer {
  name: "fc6"
  type: "InnerProduct"
  bottom: "pool5"
  top: "fc6"
  param {
    lr_mult: 1
    decay_mult: 1
  }
  param {
    lr_mult: 2
    decay_mult: 0
  }
  inner_product_param {
    num_output: 4096
    weight_filler {
      type: "gaussian"
      std: 0.005
    }
    bias_filler {
      type: "constant"
      value: 0.1
    }
  }
}
layer {
  name: "relu6"
  type: "ReLU"
  bottom: "fc6"
  top: "fc6"
}
layer {
  name: "drop6"
  type: "Dropout"
  bottom: "fc6"
  top: "fc6"
  dropout_param {
    dropout_ratio: 0.5
  }
}
layer {
  name: "fc7"
  type: "InnerProduct"
  bottom: "fc6"
  top: "fc7"
  param {
    lr_mult: 1
    decay_mult: 1
  }
  param {
    lr_mult: 2
    decay_mult: 0
  }
  inner_product_param {
    num_output: 4096
    weight_filler {
      type: "gaussian"
      std: 0.005
    }
    bias_filler {
      type: "constant"
      value: 0.1
    }
  }
}
layer {
  name: "relu7"
  type: "ReLU"
  bottom: "fc7"
  top: "fc7"
}
layer {
  name: "drop7"
  type: "Dropout"
  bottom: "fc7"
  top: "fc7"
  dropout_param {
    dropout_ratio: 0.5
  }
}
layer {
  name: "fc8_sun2"
  type: "InnerProduct"
  bottom: "fc7"
  top: "fc8_sun2"
  param {
    lr_mult: 1
    decay_mult: 1
  }
  param {
    lr_mult: 2
    decay_mult: 0
  }
  inner_product_param {
    num_output: 925
    weight_filler {
      type: "gaussian"
      std: 0.01
    }
    bias_filler {
      type: "constant"
      value: 0
    }
  }
}
layer {
  name: "loss"
  type: "SoftmaxWithLoss"
  bottom: "fc8_sun2"
  bottom: "label"
  top: "loss"
}
I0523 10:18:48.013959  2600 layer_factory.hpp:77] Creating layer data
I0523 10:18:48.023859  2600 net.cpp:100] Creating Layer data
I0523 10:18:48.023902  2600 net.cpp:408] data -> data
I0523 10:18:48.023922  2600 net.cpp:408] data -> label
I0523 10:18:48.023946  2600 data_transformer.cpp:25] Loading mean file from: /media/wangkeze/ASPL/datasets/webface/webface_mean.binaryproto
I0523 10:18:48.024523  2607 db_lmdb.cpp:35] Opened lmdb /media/wangkeze/ASPL/caffe-master/examples/imagenet/webface_finetune_lmdb
I0523 10:18:48.049669  2600 data_layer.cpp:41] output data size: 128,3,227,227
I0523 10:18:48.134688  2600 net.cpp:150] Setting up data
I0523 10:18:48.134723  2600 net.cpp:157] Top shape: 128 3 227 227 (19787136)
I0523 10:18:48.134730  2600 net.cpp:157] Top shape: 128 (128)
I0523 10:18:48.134734  2600 net.cpp:165] Memory required for data: 79149056
I0523 10:18:48.134744  2600 layer_factory.hpp:77] Creating layer conv1
I0523 10:18:48.134764  2600 net.cpp:100] Creating Layer conv1
I0523 10:18:48.134771  2600 net.cpp:434] conv1 <- data
I0523 10:18:48.134784  2600 net.cpp:408] conv1 -> conv1
I0523 10:18:48.164075  2608 blocking_queue.cpp:50] Waiting for data
I0523 10:18:48.473132  2600 net.cpp:150] Setting up conv1
I0523 10:18:48.473160  2600 net.cpp:157] Top shape: 128 96 55 55 (37171200)
I0523 10:18:48.473166  2600 net.cpp:165] Memory required for data: 227833856
I0523 10:18:48.473201  2600 layer_factory.hpp:77] Creating layer relu1
I0523 10:18:48.473232  2600 net.cpp:100] Creating Layer relu1
I0523 10:18:48.473258  2600 net.cpp:434] relu1 <- conv1
I0523 10:18:48.473278  2600 net.cpp:395] relu1 -> conv1 (in-place)
I0523 10:18:48.473471  2600 net.cpp:150] Setting up relu1
I0523 10:18:48.473481  2600 net.cpp:157] Top shape: 128 96 55 55 (37171200)
I0523 10:18:48.473495  2600 net.cpp:165] Memory required for data: 376518656
I0523 10:18:48.473500  2600 layer_factory.hpp:77] Creating layer norm1
I0523 10:18:48.473520  2600 net.cpp:100] Creating Layer norm1
I0523 10:18:48.473525  2600 net.cpp:434] norm1 <- conv1
I0523 10:18:48.473531  2600 net.cpp:408] norm1 -> norm1
I0523 10:18:48.474059  2600 net.cpp:150] Setting up norm1
I0523 10:18:48.474092  2600 net.cpp:157] Top shape: 128 96 55 55 (37171200)
I0523 10:18:48.474128  2600 net.cpp:165] Memory required for data: 525203456
I0523 10:18:48.474133  2600 layer_factory.hpp:77] Creating layer pool1
I0523 10:18:48.474150  2600 net.cpp:100] Creating Layer pool1
I0523 10:18:48.474165  2600 net.cpp:434] pool1 <- norm1
I0523 10:18:48.474171  2600 net.cpp:408] pool1 -> pool1
I0523 10:18:48.474234  2600 net.cpp:150] Setting up pool1
I0523 10:18:48.474241  2600 net.cpp:157] Top shape: 128 96 27 27 (8957952)
I0523 10:18:48.474256  2600 net.cpp:165] Memory required for data: 561035264
I0523 10:18:48.474261  2600 layer_factory.hpp:77] Creating layer conv2
I0523 10:18:48.474282  2600 net.cpp:100] Creating Layer conv2
I0523 10:18:48.474298  2600 net.cpp:434] conv2 <- pool1
I0523 10:18:48.474303  2600 net.cpp:408] conv2 -> conv2
I0523 10:18:48.485633  2600 net.cpp:150] Setting up conv2
I0523 10:18:48.485652  2600 net.cpp:157] Top shape: 128 256 27 27 (23887872)
I0523 10:18:48.485656  2600 net.cpp:165] Memory required for data: 656586752
I0523 10:18:48.485667  2600 layer_factory.hpp:77] Creating layer relu2
I0523 10:18:48.485677  2600 net.cpp:100] Creating Layer relu2
I0523 10:18:48.485684  2600 net.cpp:434] relu2 <- conv2
I0523 10:18:48.485695  2600 net.cpp:395] relu2 -> conv2 (in-place)
I0523 10:18:48.486253  2600 net.cpp:150] Setting up relu2
I0523 10:18:48.486265  2600 net.cpp:157] Top shape: 128 256 27 27 (23887872)
I0523 10:18:48.486269  2600 net.cpp:165] Memory required for data: 752138240
I0523 10:18:48.486274  2600 layer_factory.hpp:77] Creating layer norm2
I0523 10:18:48.486281  2600 net.cpp:100] Creating Layer norm2
I0523 10:18:48.486287  2600 net.cpp:434] norm2 <- conv2
I0523 10:18:48.486296  2600 net.cpp:408] norm2 -> norm2
I0523 10:18:48.486428  2600 net.cpp:150] Setting up norm2
I0523 10:18:48.486436  2600 net.cpp:157] Top shape: 128 256 27 27 (23887872)
I0523 10:18:48.486441  2600 net.cpp:165] Memory required for data: 847689728
I0523 10:18:48.486445  2600 layer_factory.hpp:77] Creating layer pool2
I0523 10:18:48.486454  2600 net.cpp:100] Creating Layer pool2
I0523 10:18:48.486459  2600 net.cpp:434] pool2 <- norm2
I0523 10:18:48.486464  2600 net.cpp:408] pool2 -> pool2
I0523 10:18:48.486490  2600 net.cpp:150] Setting up pool2
I0523 10:18:48.486495  2600 net.cpp:157] Top shape: 128 256 13 13 (5537792)
I0523 10:18:48.486500  2600 net.cpp:165] Memory required for data: 869840896
I0523 10:18:48.486505  2600 layer_factory.hpp:77] Creating layer conv3
I0523 10:18:48.486515  2600 net.cpp:100] Creating Layer conv3
I0523 10:18:48.486518  2600 net.cpp:434] conv3 <- pool2
I0523 10:18:48.486524  2600 net.cpp:408] conv3 -> conv3
I0523 10:18:48.506875  2600 net.cpp:150] Setting up conv3
I0523 10:18:48.506896  2600 net.cpp:157] Top shape: 128 384 13 13 (8306688)
I0523 10:18:48.506901  2600 net.cpp:165] Memory required for data: 903067648
I0523 10:18:48.506912  2600 layer_factory.hpp:77] Creating layer relu3
I0523 10:18:48.506922  2600 net.cpp:100] Creating Layer relu3
I0523 10:18:48.506927  2600 net.cpp:434] relu3 <- conv3
I0523 10:18:48.506933  2600 net.cpp:395] relu3 -> conv3 (in-place)
I0523 10:18:48.507060  2600 net.cpp:150] Setting up relu3
I0523 10:18:48.507068  2600 net.cpp:157] Top shape: 128 384 13 13 (8306688)
I0523 10:18:48.507072  2600 net.cpp:165] Memory required for data: 936294400
I0523 10:18:48.507077  2600 layer_factory.hpp:77] Creating layer conv4
I0523 10:18:48.507097  2600 net.cpp:100] Creating Layer conv4
I0523 10:18:48.507102  2600 net.cpp:434] conv4 <- conv3
I0523 10:18:48.507107  2600 net.cpp:408] conv4 -> conv4
I0523 10:18:48.523375  2600 net.cpp:150] Setting up conv4
I0523 10:18:48.523396  2600 net.cpp:157] Top shape: 128 384 13 13 (8306688)
I0523 10:18:48.523399  2600 net.cpp:165] Memory required for data: 969521152
I0523 10:18:48.523411  2600 layer_factory.hpp:77] Creating layer relu4
I0523 10:18:48.523433  2600 net.cpp:100] Creating Layer relu4
I0523 10:18:48.523453  2600 net.cpp:434] relu4 <- conv4
I0523 10:18:48.523478  2600 net.cpp:395] relu4 -> conv4 (in-place)
I0523 10:18:48.523689  2600 net.cpp:150] Setting up relu4
I0523 10:18:48.523710  2600 net.cpp:157] Top shape: 128 384 13 13 (8306688)
I0523 10:18:48.523713  2600 net.cpp:165] Memory required for data: 1002747904
I0523 10:18:48.523718  2600 layer_factory.hpp:77] Creating layer conv5
I0523 10:18:48.523732  2600 net.cpp:100] Creating Layer conv5
I0523 10:18:48.523738  2600 net.cpp:434] conv5 <- conv4
I0523 10:18:48.523744  2600 net.cpp:408] conv5 -> conv5
I0523 10:18:48.535182  2600 net.cpp:150] Setting up conv5
I0523 10:18:48.535200  2600 net.cpp:157] Top shape: 128 256 13 13 (5537792)
I0523 10:18:48.535205  2600 net.cpp:165] Memory required for data: 1024899072
I0523 10:18:48.535217  2600 layer_factory.hpp:77] Creating layer relu5
I0523 10:18:48.535225  2600 net.cpp:100] Creating Layer relu5
I0523 10:18:48.535231  2600 net.cpp:434] relu5 <- conv5
I0523 10:18:48.535238  2600 net.cpp:395] relu5 -> conv5 (in-place)
I0523 10:18:48.535367  2600 net.cpp:150] Setting up relu5
I0523 10:18:48.535377  2600 net.cpp:157] Top shape: 128 256 13 13 (5537792)
I0523 10:18:48.535380  2600 net.cpp:165] Memory required for data: 1047050240
I0523 10:18:48.535384  2600 layer_factory.hpp:77] Creating layer pool5
I0523 10:18:48.535393  2600 net.cpp:100] Creating Layer pool5
I0523 10:18:48.535398  2600 net.cpp:434] pool5 <- conv5
I0523 10:18:48.535404  2600 net.cpp:408] pool5 -> pool5
I0523 10:18:48.535439  2600 net.cpp:150] Setting up pool5
I0523 10:18:48.535446  2600 net.cpp:157] Top shape: 128 256 6 6 (1179648)
I0523 10:18:48.535450  2600 net.cpp:165] Memory required for data: 1051768832
I0523 10:18:48.535454  2600 layer_factory.hpp:77] Creating layer fc6
I0523 10:18:48.535466  2600 net.cpp:100] Creating Layer fc6
I0523 10:18:48.535471  2600 net.cpp:434] fc6 <- pool5
I0523 10:18:48.535477  2600 net.cpp:408] fc6 -> fc6
I0523 10:18:49.282052  2600 net.cpp:150] Setting up fc6
I0523 10:18:49.282078  2600 net.cpp:157] Top shape: 128 4096 (524288)
I0523 10:18:49.282083  2600 net.cpp:165] Memory required for data: 1053865984
I0523 10:18:49.282091  2600 layer_factory.hpp:77] Creating layer relu6
I0523 10:18:49.282111  2600 net.cpp:100] Creating Layer relu6
I0523 10:18:49.282119  2600 net.cpp:434] relu6 <- fc6
I0523 10:18:49.282126  2600 net.cpp:395] relu6 -> fc6 (in-place)
I0523 10:18:49.282739  2600 net.cpp:150] Setting up relu6
I0523 10:18:49.282750  2600 net.cpp:157] Top shape: 128 4096 (524288)
I0523 10:18:49.282757  2600 net.cpp:165] Memory required for data: 1055963136
I0523 10:18:49.282762  2600 layer_factory.hpp:77] Creating layer drop6
I0523 10:18:49.282768  2600 net.cpp:100] Creating Layer drop6
I0523 10:18:49.282783  2600 net.cpp:434] drop6 <- fc6
I0523 10:18:49.282789  2600 net.cpp:395] drop6 -> fc6 (in-place)
I0523 10:18:49.282810  2600 net.cpp:150] Setting up drop6
I0523 10:18:49.282826  2600 net.cpp:157] Top shape: 128 4096 (524288)
I0523 10:18:49.282830  2600 net.cpp:165] Memory required for data: 1058060288
I0523 10:18:49.282835  2600 layer_factory.hpp:77] Creating layer fc7
I0523 10:18:49.282842  2600 net.cpp:100] Creating Layer fc7
I0523 10:18:49.282847  2600 net.cpp:434] fc7 <- fc6
I0523 10:18:49.282866  2600 net.cpp:408] fc7 -> fc7
I0523 10:18:49.606449  2600 net.cpp:150] Setting up fc7
I0523 10:18:49.606477  2600 net.cpp:157] Top shape: 128 4096 (524288)
I0523 10:18:49.606482  2600 net.cpp:165] Memory required for data: 1060157440
I0523 10:18:49.606492  2600 layer_factory.hpp:77] Creating layer relu7
I0523 10:18:49.606511  2600 net.cpp:100] Creating Layer relu7
I0523 10:18:49.606516  2600 net.cpp:434] relu7 <- fc7
I0523 10:18:49.606524  2600 net.cpp:395] relu7 -> fc7 (in-place)
I0523 10:18:49.606701  2600 net.cpp:150] Setting up relu7
I0523 10:18:49.606710  2600 net.cpp:157] Top shape: 128 4096 (524288)
I0523 10:18:49.606714  2600 net.cpp:165] Memory required for data: 1062254592
I0523 10:18:49.606719  2600 layer_factory.hpp:77] Creating layer drop7
I0523 10:18:49.606727  2600 net.cpp:100] Creating Layer drop7
I0523 10:18:49.606741  2600 net.cpp:434] drop7 <- fc7
I0523 10:18:49.606746  2600 net.cpp:395] drop7 -> fc7 (in-place)
I0523 10:18:49.606765  2600 net.cpp:150] Setting up drop7
I0523 10:18:49.606792  2600 net.cpp:157] Top shape: 128 4096 (524288)
I0523 10:18:49.606796  2600 net.cpp:165] Memory required for data: 1064351744
I0523 10:18:49.606801  2600 layer_factory.hpp:77] Creating layer fc8_sun2
I0523 10:18:49.606808  2600 net.cpp:100] Creating Layer fc8_sun2
I0523 10:18:49.606812  2600 net.cpp:434] fc8_sun2 <- fc7
I0523 10:18:49.606830  2600 net.cpp:408] fc8_sun2 -> fc8_sun2
I0523 10:18:49.680169  2600 net.cpp:150] Setting up fc8_sun2
I0523 10:18:49.680197  2600 net.cpp:157] Top shape: 128 925 (118400)
I0523 10:18:49.680200  2600 net.cpp:165] Memory required for data: 1064825344
I0523 10:18:49.680209  2600 layer_factory.hpp:77] Creating layer loss
I0523 10:18:49.680228  2600 net.cpp:100] Creating Layer loss
I0523 10:18:49.680234  2600 net.cpp:434] loss <- fc8_sun2
I0523 10:18:49.680240  2600 net.cpp:434] loss <- label
I0523 10:18:49.680248  2600 net.cpp:408] loss -> loss
I0523 10:18:49.680260  2600 layer_factory.hpp:77] Creating layer loss
…
I0523 10:18:49.681841  2600 net.cpp:322] The NetState phase (1) differed from the phase (0) specified by a rule in layer data
I0523 10:18:49.681963  2600 net.cpp:58] Initializing net from parameters: 
name: "AlexNet"
state {
  phase: TEST
}
layer {
  name: "data"
  type: "Data"
  top: "data"
  top: "label"
  include {
    phase: TEST
  }
  transform_param {
    mirror: false
    crop_size: 227
    mean_file: "/media/wangkeze/ASPL/datasets/webface/webface_mean.binaryproto"
  }
  data_param {
    source: "/media/wangkeze/ASPL/caffe-master/examples/imagenet/webface_test_lmdb"
    batch_size: 256
    backend: LMDB
  }
}
layer {
  name: "conv1"
  type: "Convolution"
  bottom: "data"
  top: "conv1"
  param {
    lr_mult: 1
    decay_mult: 1
  }
  param {
    lr_mult: 2
    decay_mult: 0
  }
  convolution_param {
    num_output: 96
    kernel_size: 11
    stride: 4
    weight_filler {
      type: "gaussian"
      std: 0.01
    }
    bias_filler {
      type: "constant"
      value: 0
    }
  }
}
layer {
  name: "relu1"
  type: "ReLU"
  bottom: "conv1"
  top: "conv1"
}
layer {
  name: "norm1"
  type: "LRN"
  bottom: "conv1"
  top: "norm1"
  lrn_param {
    local_size: 5
    alpha: 0.0001
    beta: 0.75
  }
}
layer {
  name: "pool1"
  type: "Pooling"
  bottom: "norm1"
  top: "pool1"
  pooling_param {
    pool: MAX
    kernel_size: 3
    stride: 2
  }
}
layer {
  name: "conv2"
  type: "Convolution"
  bottom: "pool1"
  top: "conv2"
  param {
    lr_mult: 1
    decay_mult: 1
  }
  param {
    lr_mult: 2
    decay_mult: 0
  }
  convolution_param {
    num_output: 256
    pad: 2
    kernel_size: 5
    group: 2
    weight_filler {
      type: "gaussian"
      std: 0.01
    }
    bias_filler {
      type: "constant"
      value: 0.1
    }
  }
}
layer {
  name: "relu2"
  type: "ReLU"
  bottom: "conv2"
  top: "conv2"
}
layer {
  name: "norm2"
  type: "LRN"
  bottom: "conv2"
  top: "norm2"
  lrn_param {
    local_size: 5
    alpha: 0.0001
    beta: 0.75
  }
}
layer {
  name: "pool2"
  type: "Pooling"
  bottom: "norm2"
  top: "pool2"
  pooling_param {
    pool: MAX
    kernel_size: 3
    stride: 2
  }
}
layer {
  name: "conv3"
  type: "Convolution"
  bottom: "pool2"
  top: "conv3"
  param {
    lr_mult: 1
    decay_mult: 1
  }
  param {
    lr_mult: 2
    decay_mult: 0
  }
  convolution_param {
    num_output: 384
    pad: 1
    kernel_size: 3
    weight_filler {
      type: "gaussian"
      std: 0.01
    }
    bias_filler {
      type: "constant"
      value: 0
    }
  }
}
layer {
  name: "relu3"
  type: "ReLU"
  bottom: "conv3"
  top: "conv3"
}
layer {
  name: "conv4"
  type: "Convolution"
  bottom: "conv3"
  top: "conv4"
  param {
    lr_mult: 1
    decay_mult: 1
  }
  param {
    lr_mult: 2
    decay_mult: 0
  }
  convolution_param {
    num_output: 384
    pad: 1
    kernel_size: 3
    group: 2
    weight_filler {
      type: "gaussian"
      std: 0.01
    }
    bias_filler {
      type: "constant"
      value: 0.1
    }
  }
}
layer {
  name: "relu4"
  type: "ReLU"
  bottom: "conv4"
  top: "conv4"
}
layer {
  name: "conv5"
  type: "Convolution"
  bottom: "conv4"
  top: "conv5"
  param {
    lr_mult: 1
    decay_mult: 1
  }
  param {
    lr_mult: 2
    decay_mult: 0
  }
  convolution_param {
    num_output: 256
    pad: 1
    kernel_size: 3
    group: 2
    weight_filler {
      type: "gaussian"
      std: 0.01
    }
    bias_filler {
      type: "constant"
      value: 0.1
    }
  }
}
layer {
  name: "relu5"
  type: "ReLU"
  bottom: "conv5"
  top: "conv5"
}
layer {
  name: "pool5"
  type: "Pooling"
  bottom: "conv5"
  top: "pool5"
  pooling_param {
    pool: MAX
    kernel_size: 3
    stride: 2
  }
}
layer {
  name: "fc6"
  type: "InnerProduct"
  bottom: "pool5"
  top: "fc6"
  param {
    lr_mult: 1
    decay_mult: 1
  }
  param {
    lr_mult: 2
    decay_mult: 0
  }
  inner_product_param {
    num_output: 4096
    weight_filler {
      type: "gaussian"
      std: 0.005
    }
    bias_filler {
      type: "constant"
      value: 0.1
    }
  }
}
layer {
  name: "relu6"
  type: "ReLU"
  bottom: "fc6"
  top: "fc6"
}
layer {
  name: "drop6"
  type: "Dropout"
  bottom: "fc6"
  top: "fc6"
  dropout_param {
    dropout_ratio: 0.5
  }
}
layer {
  name: "fc7"
  type: "InnerProduct"
  bottom: "fc6"
  top: "fc7"
  param {
    lr_mult: 1
    decay_mult: 1
  }
  param {
    lr_mult: 2
    decay_mult: 0
  }
  inner_product_param {
    num_output: 4096
    weight_filler {
      type: "gaussian"
      std: 0.005
    }
    bias_filler {
      type: "constant"
      value: 0.1
    }
  }
}
layer {
  name: "relu7"
  type: "ReLU"
  bottom: "fc7"
  top: "fc7"
}
layer {
  name: "drop7"
  type: "Dropout"
  bottom: "fc7"
  top: "fc7"
  dropout_param {
    dropout_ratio: 0.5
  }
}
layer {
  name: "fc8_sun2"
  type: "InnerProduct"
  bottom: "fc7"
  top: "fc8_sun2"
  param {
    lr_mult: 1
    decay_mult: 1
  }
  param {
    lr_mult: 2
    decay_mult: 0
  }
  inner_product_param {
    num_output: 925
    weight_filler {
      type: "gaussian"
      std: 0.01
    }
    bias_filler {
      type: "constant"
      value: 0
    }
  }
}
layer {
  name: "accuracy"
  type: "Accuracy"
  bottom: "fc8_sun2"
  bottom: "label"
  top: "accuracy"
  include {
    phase: TEST
  }
}
layer {
  name: "loss"
  type: "SoftmaxWithLoss"
  bottom: "fc8_sun2"
  bottom: "label"
  top: "loss"
}
I0523 10:18:49.682055  2600 layer_factory.hpp:77] Creating layer data
I0523 10:18:49.682207  2600 net.cpp:100] Creating Layer data
I0523 10:18:49.682215  2600 net.cpp:408] data -> data
I0523 10:18:49.682224  2600 net.cpp:408] data -> label
I0523 10:18:49.682230  2600 data_transformer.cpp:25] Loading mean file from: /media/wangkeze/ASPL/datasets/webface/webface_mean.binaryproto
I0523 10:18:49.695025  2609 db_lmdb.cpp:35] Opened lmdb /media/wangkeze/ASPL/caffe-master/examples/imagenet/webface_test_lmdb
I0523 10:18:49.712265  2600 data_layer.cpp:41] output data size: 256,3,227,227
I0523 10:18:49.882633  2600 net.cpp:150] Setting up data
I0523 10:18:49.882654  2600 net.cpp:157] Top shape: 256 3 227 227 (39574272)
I0523 10:18:49.882661  2600 net.cpp:157] Top shape: 256 (256)
I0523 10:18:49.882676  2600 net.cpp:165] Memory required for data: 158298112
I0523 10:18:49.882683  2600 layer_factory.hpp:77] Creating layer label_data_1_split
I0523 10:18:49.882696  2600 net.cpp:100] Creating Layer label_data_1_split
I0523 10:18:49.882704  2600 net.cpp:434] label_data_1_split <- label
I0523 10:18:49.882711  2600 net.cpp:408] label_data_1_split -> label_data_1_split_0
I0523 10:18:49.882720  2600 net.cpp:408] label_data_1_split -> label_data_1_split_1
I0523 10:18:49.882828  2600 net.cpp:150] Setting up label_data_1_split
I0523 10:18:49.882843  2600 net.cpp:157] Top shape: 256 (256)
I0523 10:18:49.882848  2600 net.cpp:157] Top shape: 256 (256)
I0523 10:18:49.882864  2600 net.cpp:165] Memory required for data: 158300160
I0523 10:18:49.882869  2600 layer_factory.hpp:77] Creating layer conv1
I0523 10:18:49.882884  2600 net.cpp:100] Creating Layer conv1
I0523 10:18:49.882889  2600 net.cpp:434] conv1 <- data
I0523 10:18:49.882896  2600 net.cpp:408] conv1 -> conv1
I0523 10:18:49.897088  2600 net.cpp:150] Setting up conv1
I0523 10:18:49.897109  2600 net.cpp:157] Top shape: 256 96 55 55 (74342400)
I0523 10:18:49.897114  2600 net.cpp:165] Memory required for data: 455669760
I0523 10:18:49.897135  2600 layer_factory.hpp:77] Creating layer relu1
I0523 10:18:49.897146  2600 net.cpp:100] Creating Layer relu1
I0523 10:18:49.897153  2600 net.cpp:434] relu1 <- conv1
I0523 10:18:49.897161  2600 net.cpp:395] relu1 -> conv1 (in-place)
I0523 10:18:49.897294  2600 net.cpp:150] Setting up relu1
I0523 10:18:49.897302  2600 net.cpp:157] Top shape: 256 96 55 55 (74342400)
I0523 10:18:49.897307  2600 net.cpp:165] Memory required for data: 753039360
I0523 10:18:49.897321  2600 layer_factory.hpp:77] Creating layer norm1
I0523 10:18:49.897331  2600 net.cpp:100] Creating Layer norm1
I0523 10:18:49.897336  2600 net.cpp:434] norm1 <- conv1
I0523 10:18:49.897341  2600 net.cpp:408] norm1 -> norm1
I0523 10:18:49.897959  2600 net.cpp:150] Setting up norm1
I0523 10:18:49.897974  2600 net.cpp:157] Top shape: 256 96 55 55 (74342400)
I0523 10:18:49.897977  2600 net.cpp:165] Memory required for data: 1050408960
I0523 10:18:49.897994  2600 layer_factory.hpp:77] Creating layer pool1
I0523 10:18:49.898001  2600 net.cpp:100] Creating Layer pool1
I0523 10:18:49.898007  2600 net.cpp:434] pool1 <- norm1
I0523 10:18:49.898013  2600 net.cpp:408] pool1 -> pool1
I0523 10:18:49.898057  2600 net.cpp:150] Setting up pool1
I0523 10:18:49.898064  2600 net.cpp:157] Top shape: 256 96 27 27 (17915904)
I0523 10:18:49.898068  2600 net.cpp:165] Memory required for data: 1122072576
I0523 10:18:49.898084  2600 layer_factory.hpp:77] Creating layer conv2
I0523 10:18:49.898094  2600 net.cpp:100] Creating Layer conv2
I0523 10:18:49.898099  2600 net.cpp:434] conv2 <- pool1
I0523 10:18:49.898105  2600 net.cpp:408] conv2 -> conv2
I0523 10:18:49.906190  2600 net.cpp:150] Setting up conv2
I0523 10:18:49.906213  2600 net.cpp:157] Top shape: 256 256 27 27 (47775744)
I0523 10:18:49.906219  2600 net.cpp:165] Memory required for data: 1313175552
I0523 10:18:49.906230  2600 layer_factory.hpp:77] Creating layer relu2
I0523 10:18:49.906244  2600 net.cpp:100] Creating Layer relu2
I0523 10:18:49.906261  2600 net.cpp:434] relu2 <- conv2
I0523 10:18:49.906277  2600 net.cpp:395] relu2 -> conv2 (in-place)
I0523 10:18:49.906828  2600 net.cpp:150] Setting up relu2
I0523 10:18:49.906842  2600 net.cpp:157] Top shape: 256 256 27 27 (47775744)
I0523 10:18:49.906847  2600 net.cpp:165] Memory required for data: 1504278528
I0523 10:18:49.906852  2600 layer_factory.hpp:77] Creating layer norm2
I0523 10:18:49.906862  2600 net.cpp:100] Creating Layer norm2
I0523 10:18:49.906868  2600 net.cpp:434] norm2 <- conv2
I0523 10:18:49.906875  2600 net.cpp:408] norm2 -> norm2
I0523 10:18:49.907033  2600 net.cpp:150] Setting up norm2
I0523 10:18:49.907042  2600 net.cpp:157] Top shape: 256 256 27 27 (47775744)
I0523 10:18:49.907047  2600 net.cpp:165] Memory required for data: 1695381504
I0523 10:18:49.907063  2600 layer_factory.hpp:77] Creating layer pool2
I0523 10:18:49.907071  2600 net.cpp:100] Creating Layer pool2
I0523 10:18:49.907078  2600 net.cpp:434] pool2 <- norm2
I0523 10:18:49.907084  2600 net.cpp:408] pool2 -> pool2
I0523 10:18:49.907124  2600 net.cpp:150] Setting up pool2
I0523 10:18:49.907130  2600 net.cpp:157] Top shape: 256 256 13 13 (11075584)
I0523 10:18:49.907133  2600 net.cpp:165] Memory required for data: 1739683840
I0523 10:18:49.907148  2600 layer_factory.hpp:77] Creating layer conv3
I0523 10:18:49.907160  2600 net.cpp:100] Creating Layer conv3
I0523 10:18:49.907166  2600 net.cpp:434] conv3 <- pool2
I0523 10:18:49.907172  2600 net.cpp:408] conv3 -> conv3
I0523 10:18:49.927549  2600 net.cpp:150] Setting up conv3
I0523 10:18:49.927577  2600 net.cpp:157] Top shape: 256 384 13 13 (16613376)
I0523 10:18:49.927582  2600 net.cpp:165] Memory required for data: 1806137344
I0523 10:18:49.927608  2600 layer_factory.hpp:77] Creating layer relu3
I0523 10:18:49.927619  2600 net.cpp:100] Creating Layer relu3
I0523 10:18:49.927628  2600 net.cpp:434] relu3 <- conv3
I0523 10:18:49.927635  2600 net.cpp:395] relu3 -> conv3 (in-place)
I0523 10:18:49.927793  2600 net.cpp:150] Setting up relu3
I0523 10:18:49.927804  2600 net.cpp:157] Top shape: 256 384 13 13 (16613376)
I0523 10:18:49.927809  2600 net.cpp:165] Memory required for data: 1872590848
I0523 10:18:49.927824  2600 layer_factory.hpp:77] Creating layer conv4
I0523 10:18:49.927835  2600 net.cpp:100] Creating Layer conv4
I0523 10:18:49.927842  2600 net.cpp:434] conv4 <- conv3
I0523 10:18:49.927848  2600 net.cpp:408] conv4 -> conv4
I0523 10:18:49.944299  2600 net.cpp:150] Setting up conv4
I0523 10:18:49.944324  2600 net.cpp:157] Top shape: 256 384 13 13 (16613376)
I0523 10:18:49.944329  2600 net.cpp:165] Memory required for data: 1939044352
I0523 10:18:49.944350  2600 layer_factory.hpp:77] Creating layer relu4
I0523 10:18:49.944360  2600 net.cpp:100] Creating Layer relu4
I0523 10:18:49.944367  2600 net.cpp:434] relu4 <- conv4
I0523 10:18:49.944375  2600 net.cpp:395] relu4 -> conv4 (in-place)
I0523 10:18:49.944533  2600 net.cpp:150] Setting up relu4
I0523 10:18:49.944542  2600 net.cpp:157] Top shape: 256 384 13 13 (16613376)
I0523 10:18:49.944547  2600 net.cpp:165] Memory required for data: 2005497856
I0523 10:18:49.944551  2600 layer_factory.hpp:77] Creating layer conv5
I0523 10:18:49.944574  2600 net.cpp:100] Creating Layer conv5
I0523 10:18:49.944581  2600 net.cpp:434] conv5 <- conv4
I0523 10:18:49.944586  2600 net.cpp:408] conv5 -> conv5
I0523 10:18:49.956377  2600 net.cpp:150] Setting up conv5
I0523 10:18:49.956401  2600 net.cpp:157] Top shape: 256 256 13 13 (11075584)
I0523 10:18:49.956408  2600 net.cpp:165] Memory required for data: 2049800192
I0523 10:18:49.956440  2600 layer_factory.hpp:77] Creating layer relu5
I0523 10:18:49.956450  2600 net.cpp:100] Creating Layer relu5
I0523 10:18:49.956459  2600 net.cpp:434] relu5 <- conv5
I0523 10:18:49.956490  2600 net.cpp:395] relu5 -> conv5 (in-place)
I0523 10:18:49.956653  2600 net.cpp:150] Setting up relu5
I0523 10:18:49.956662  2600 net.cpp:157] Top shape: 256 256 13 13 (11075584)
I0523 10:18:49.956666  2600 net.cpp:165] Memory required for data: 2094102528
I0523 10:18:49.956681  2600 layer_factory.hpp:77] Creating layer pool5
I0523 10:18:49.956691  2600 net.cpp:100] Creating Layer pool5
I0523 10:18:49.956697  2600 net.cpp:434] pool5 <- conv5
I0523 10:18:49.956702  2600 net.cpp:408] pool5 -> pool5
I0523 10:18:49.956758  2600 net.cpp:150] Setting up pool5
I0523 10:18:49.956766  2600 net.cpp:157] Top shape: 256 256 6 6 (2359296)
I0523 10:18:49.956770  2600 net.cpp:165] Memory required for data: 2103539712
I0523 10:18:49.956784  2600 layer_factory.hpp:77] Creating layer fc6
I0523 10:18:49.956794  2600 net.cpp:100] Creating Layer fc6
I0523 10:18:49.956799  2600 net.cpp:434] fc6 <- pool5
I0523 10:18:49.956804  2600 net.cpp:408] fc6 -> fc6
I0523 10:18:50.703064  2600 net.cpp:150] Setting up fc6
I0523 10:18:50.703094  2600 net.cpp:157] Top shape: 256 4096 (1048576)
I0523 10:18:50.703099  2600 net.cpp:165] Memory required for data: 2107734016
I0523 10:18:50.703109  2600 layer_factory.hpp:77] Creating layer relu6
I0523 10:18:50.703130  2600 net.cpp:100] Creating Layer relu6
I0523 10:18:50.703137  2600 net.cpp:434] relu6 <- fc6
I0523 10:18:50.703145  2600 net.cpp:395] relu6 -> fc6 (in-place)
I0523 10:18:50.703342  2600 net.cpp:150] Setting up relu6
I0523 10:18:50.703352  2600 net.cpp:157] Top shape: 256 4096 (1048576)
I0523 10:18:50.703356  2600 net.cpp:165] Memory required for data: 2111928320
I0523 10:18:50.703361  2600 layer_factory.hpp:77] Creating layer drop6
I0523 10:18:50.703369  2600 net.cpp:100] Creating Layer drop6
I0523 10:18:50.703373  2600 net.cpp:434] drop6 <- fc6
I0523 10:18:50.703388  2600 net.cpp:395] drop6 -> fc6 (in-place)
I0523 10:18:50.703413  2600 net.cpp:150] Setting up drop6
I0523 10:18:50.703428  2600 net.cpp:157] Top shape: 256 4096 (1048576)
I0523 10:18:50.703431  2600 net.cpp:165] Memory required for data: 2116122624
I0523 10:18:50.703435  2600 layer_factory.hpp:77] Creating layer fc7
I0523 10:18:50.703444  2600 net.cpp:100] Creating Layer fc7
I0523 10:18:50.703449  2600 net.cpp:434] fc7 <- fc6
I0523 10:18:50.703466  2600 net.cpp:408] fc7 -> fc7
I0523 10:18:51.026554  2600 net.cpp:150] Setting up fc7
I0523 10:18:51.026581  2600 net.cpp:157] Top shape: 256 4096 (1048576)
I0523 10:18:51.026584  2600 net.cpp:165] Memory required for data: 2120316928
I0523 10:18:51.026593  2600 layer_factory.hpp:77] Creating layer relu7
I0523 10:18:51.026613  2600 net.cpp:100] Creating Layer relu7
I0523 10:18:51.026619  2600 net.cpp:434] relu7 <- fc7
I0523 10:18:51.026626  2600 net.cpp:395] relu7 -> fc7 (in-place)
I0523 10:18:51.027257  2600 net.cpp:150] Setting up relu7
I0523 10:18:51.027269  2600 net.cpp:157] Top shape: 256 4096 (1048576)
I0523 10:18:51.027274  2600 net.cpp:165] Memory required for data: 2124511232
I0523 10:18:51.027278  2600 layer_factory.hpp:77] Creating layer drop7
I0523 10:18:51.027284  2600 net.cpp:100] Creating Layer drop7
I0523 10:18:51.027299  2600 net.cpp:434] drop7 <- fc7
I0523 10:18:51.027305  2600 net.cpp:395] drop7 -> fc7 (in-place)
I0523 10:18:51.027339  2600 net.cpp:150] Setting up drop7
I0523 10:18:51.027354  2600 net.cpp:157] Top shape: 256 4096 (1048576)
I0523 10:18:51.027359  2600 net.cpp:165] Memory required for data: 2128705536
I0523 10:18:51.027372  2600 layer_factory.hpp:77] Creating layer fc8_sun2
I0523 10:18:51.027379  2600 net.cpp:100] Creating Layer fc8_sun2
I0523 10:18:51.027395  2600 net.cpp:434] fc8_sun2 <- fc7
I0523 10:18:51.027410  2600 net.cpp:408] fc8_sun2 -> fc8_sun2
I0523 10:18:51.100956  2600 net.cpp:150] Setting up fc8_sun2
I0523 10:18:51.100983  2600 net.cpp:157] Top shape: 256 925 (236800)
I0523 10:18:51.101006  2600 net.cpp:165] Memory required for data: 2129652736
I0523 10:18:51.101014  2600 layer_factory.hpp:77] Creating layer fc8_sun2_fc8_sun2_0_split
I0523 10:18:51.101033  2600 net.cpp:100] Creating Layer fc8_sun2_fc8_sun2_0_split
I0523 10:18:51.101052  2600 net.cpp:434] fc8_sun2_fc8_sun2_0_split <- fc8_sun2
I0523 10:18:51.101059  2600 net.cpp:408] fc8_sun2_fc8_sun2_0_split -> fc8_sun2_fc8_sun2_0_split_0
I0523 10:18:51.101068  2600 net.cpp:408] fc8_sun2_fc8_sun2_0_split -> fc8_sun2_fc8_sun2_0_split_1
I0523 10:18:51.101102  2600 net.cpp:150] Setting up fc8_sun2_fc8_sun2_0_split
I0523 10:18:51.101109  2600 net.cpp:157] Top shape: 256 925 (236800)
I0523 10:18:51.101114  2600 net.cpp:157] Top shape: 256 925 (236800)
I0523 10:18:51.101119  2600 net.cpp:165] Memory required for data: 2131547136
I0523 10:18:51.101124  2600 layer_factory.hpp:77] Creating layer accuracy
I0523 10:18:51.101130  2600 net.cpp:100] Creating Layer accuracy
I0523 10:18:51.101135  2600 net.cpp:434] accuracy <- fc8_sun2_fc8_sun2_0_split_0
I0523 10:18:51.101140  2600 net.cpp:434] accuracy <- label_data_1_split_0
I0523 10:18:51.101146  2600 net.cpp:408] accuracy -> accuracy
…
